testingmodel.pt (torch, 17020 bytes, 7 tensors)

weight f4 [64, 4]
-0.14771259 -0.29222906 0.35189694 -0.37002248 0.1556396 0.07078601 -0.090341896 -0.20875086
-0.28742456 0.14936174 0.18678223 -0.027065272 -0.3853025 -0.45218796 0.52163106 0.4776765
-0.06431568 -0.45158207 -0.03697622 -0.22031188 0.2898882 -0.3121857 0.1093812 0.2962331
0.44748664 0.069749095 -0.40445882 0.4397294 -0.093721256 0.3781006 -0.6129562 0.3129193
0.24583079 0.064542025 0.10290849 0.34207904 -0.5566653 -0.4082199 -0.037987247 0.35980165
-0.47226068 0.05392651 -0.36951476 -0.099254765 0.17307056 0.43731207 0.37287664 -0.016022824
0.48563832 -0.06928688 -0.027324643 0.02740653 -0.51476914 0.11570931 0.34527943 0.3984981
0.031874824 0.3324167 0.029228784 -0.47987264 -0.12875605 -0.3006655 0.09980011 -0.18343693
0.40817168 0.034705713 0.35674715 0.19001126 -0.0022642156 0.33754596 -0.09458836 0.24057496
0.44776842 0.4362441 -0.533339 -0.4169433 -0.16449945 -0.16709803 0.26118273 0.14700198
0.02924486 0.26668766 0.3100915 0.2147453 -0.066527314 0.5020063 -0.38535696 0.043980174
-0.6144589 -0.029926142 -0.015273555 0.09205894 0.3732744 -0.30287284 -0.37787843 0.23341435
-0.010782838 -0.061203778 0.21852541 -0.34310943 -0.25079697 0.3230519 0.20429844 0.26010478
-0.38527834 -0.4285553 0.08845103 -0.1789096 -0.39972168 -0.09371705 0.028755134 0.41284746
0.57865477 0.13143754 -0.327281 0.17418869 -0.4238886 -0.019469569 0.075613745 0.25042778
-0.15172994 -0.17334467 0.13830292 -0.10672444 0.29100907 -0.07081765 0.08928639 -0.32575482
-0.58500737 0.2789132 0.67821616 -0.41340306 -0.4525122 -0.4100349 -0.49526387 0.32463503
-0.2932363 0.1589802 -0.37734506 -0.455332 0.01185116 0.40229955 -0.08524561 -0.033253662
-0.36698556 0.19583705 0.54037297 -0.2613358 0.6770209 -0.3122853 -0.5235148 0.51272315
0.7825987 -0.11236922 -0.35200986 0.4541188 0.23971373 -0.049094617 0.46132463 -0.18400604
0.31771424 0.41940618 -0.007622696 0.37123457 -0.14750344 -0.48641473 0.48931062 -0.3312567
-0.87354743 -0.1638158 0.55200183 0.012539037 0.23278292 0.080093436 -0.23274112 -0.1836268
-0.1073577 -0.063215405 -0.44979486 0.32247633 0.43240845 -0.44627678 0.2524144 0.00049978495
0.25706673 -0.18976438 0.34950328 -0.37940186 -0.7264525 0.268262 0.41364476 -0.03862624
0.03775295 0.42613038 0.2458744 0.05055371 0.25773585 -0.3580495 -0.20855933 0.18810481
0.04613924 0.22430669 -0.13703819 -0.45807698 0.13501169 0.4247468 0.37224856 0.3569254
0.50780094 0.32276505 -0.392219 -0.32650793 -0.37066096 -0.28896803 0.29009977 0.16295256
0.40058395 0.18703067 -0.03987188 -0.03710953 -0.0024797777 0.16456738 -0.40452462 -0.40525714
-0.21878299 -0.17421027 -0.20009495 0.30810994 0.29369038 -0.40426028 0.47562855 -0.36545503
-0.06429242 0.3407117 -0.10206655 -0.050916795 0.23083746 -0.29245824 0.21135639 0.26656014
0.8561892 -0.11151313 -0.5537158 0.3779984 0.1151366 0.23608065 -0.26774982 -0.21662495
0.025396824 -0.12929976 0.25272512 -0.20373964 0.1585628 0.13727263 -0.010795163 -0.38779783
00000000: f841 17be 0c9f 95be d62b b43e 9673 bdbe
00000010: fd5f 1f3e 41f8 903d 2c05 b9bd c9c2 55be
00000020: 5029 93be 49f2 183e d743 3f3e fdb7 ddbc
00000030: 5f46 c5be 2e85 e7be 9d89 053f 0492 f43e
00000040: f0b7 83bd c435 e7be 6074 17bd 7099 61be
00000050: 3a6c 943e ced6 9fbe 4003 e03d ddab 973e
00000060: f81c e53e 9dd8 8e3d 3a15 cfbe 3624 e13e
00000070: eef0 bfbd 6796 c13e b3ea 1cbf f536 a03e
00000080: 11bb 7b3e 9c2e 843d b0c1 d23d fc24 af3e
00000090: 9e81 0ebf 3302 d1be 8498 1bbd ec37 b83e
000000a0: 27cc f1be 0be2 5c3d 0a31 bdbe 1546 cbbd
000000b0: 6939 313e 5ee7 df3e b0e9 be3e 4c42 83bc
000000c0: 96a5 f83e 48e6 8dbd eed7 dfbc a983 e03c
000000d0: e9c7 03bf 01f9 ec3d 77c8 b03e f107 cc3e
000000e0: 2d8f 023d 8632 aa3e 3471 ef3c deb1 f5be
000000f0: a0d8 03be d4f0 99be 0064 cc3d e4d6 3bbe
00000100: e1fb d03e 9427 0e3d 90a7 b63e 5092 423e
00000110: 3c63 14bb d3d2 ac3e 8bb7 c1bd 4859 763e
00000120: e741 e53e 635b df3e e888 08bf 9879 d5be
00000130: 8b72 28be bf1b 2bbe beb9 853e b087 163e
00000140: eb92 ef3c 498b 883e 50c4 9e3e 31e6 5b3e
00000150: 793f 88bd 7c83 003f 824d c5be 8e24 343d
00000160: 2e4d 1dbf ab27 f5bc ef3d 7abc 6689 bc3d
00000170: d21d bf3e 2612 9bbe 4879 c1be 2c04 6f3e
00000180: 80aa 30bc d0b0 7abd 20c5 5f3e 0aac afbe
00000190: 7668 80be 0f67 a53e 9c33 513e 742c 853e
000001a0: 3443 c5be 9a6b dbbe d025 b53d 1434 37be
000001b0: 52a8 ccbe baee bfbd e38f eb3c be60 d33e
000001c0: b822 143f 9097 063e 6091 a7be 855e 323e
000001d0: ed07 d9be a57e 9fbc 61db 9a3d 1238 803e
000001e0: 185f 1bbe 4481 31be 489f 0d3e 5892 dabd
000001f0: 24ff 943e d808 91bd c8db b63d 56c9 a6be
00000200: 0bc3 15bf b6cd 8e3e 939f 2d3f 91a9 d3be
00000210: aeaf e7be 18f0 d1be 3a93 fdbe 9036 a63e
00000220: 1123 96be b5cb 223e 5f33 c1be 4721 e9be
00000230: 5e2b 423c 35fa cd3e 4095 aebd fe34 08bd
00000240: 88e5 bbbe 8289 483e e255 0a3f cecd 85be
00000250: 3e51 2d3f dce3 9fbe 1105 06bf d341 033f
00000260: 6358 483f d521 e6bd a33a b4be 4282 e83e
00000270: 8477 753e 7017 49bd be32 ec3e 146c 3cbe
00000280: 71ab a23e 68bc d63e cfc7 f9bb 7512 be3e
00000290: 240b 17be 5a0b f9be ec86 fa3e 7a9a a9be
000002a0: cea0 5fbf 54bf 27be fe4f 0d3f 8870 4d3c
000002b0: a55e 6e3e 0708 a43d b053 6ebe aa08 3cbe
000002c0: 5bde dbbd 1477 81bd 834b e6be 9e1b a53e
000002d0: a464 dd3e 647e e4be 763c 813e 0004 033a
000002e0: 409e 833e 9851 42be 18f2 b23e f640 c2be
000002f0: cbf8 39bf a359 893e 3fc9 d33e 8c36 1ebd
00000300: d6a2 1a3d c32d da3e 80c6 7b3e 6811 4f3d
00000310: f4f5 833e 4452 b7be 9490 55be 8c9e 403e
00000320: 80fc 3c3d a7b0 653e bd53 0cbe 1189 eabe
00000330: 8140 0a3e 6a78 d93e 5d97 be3e edbe b63e
00000340: 3eff 013f 7641 a53e eed0 c8be 0c2c a7be
00000350: 46c7 bdbe 9ef3 93be f587 943e 09dd 263e
00000360: 5719 cd3e f884 3f3e b250 23bd 2a00 18bd
00000370: c483 22bb 5a84 283e da1d cfbe dd7d cfbe
00000380: a608 60be 2d64 32be b1e5 4cbe 96c0 9d3e
00000390: 965e 963e 34fb cebe 9685 f33e ec1c bbbe
000003a0: bfab 83bd c471 ae3e 4408 d1bd 218e 50bd
000003b0: a860 6c3e 16bd 95be cf6d 583e 927a 883e
000003c0: 372f 5b3f ff60 e4bd 52c0 0dbf 0289 c13e
000003d0: bdcc eb3d 20bf 713e 8116 89be eed2 5dbe
000003e0: 000d d03c 2867 04be 3065 813e 20a1 50be
000003f0: 495e 223e 3291 0c3e 32de 30bc 708d c6be

bias f4 [64]
0.36677593 0.20529081 -0.5880954 0.03797653 -0.12521476 -0.45063284 -0.30254364 0.15979332
-0.06376834 -0.17599274 0.017576369 0.3590467 0.19516198 -0.29074314 -0.45376322 0.4079466
-0.088764 -0.4717402 0.375265 0.32465488 0.023836238 -0.17640287 0.14078432 -0.46077764
0.022093058 0.17489377 0.30184478 0.13584028 -0.4476753 -0.1800552 0.090833426 -0.38601524
-0.004895911 0.04271847 -0.13089319 0.08953027 0.31110698 -0.3828104 -0.018737825 -0.37152356
0.45011646 -0.24741048 -0.42386827 -0.11248966 -0.26872623 -0.06791717 0.4902535 0.015724918
0.4694376 0.09985381 -0.14709917 0.28289413 0.35872772 -0.52197546 0.45900112 -0.06544164
-0.13567998 -0.4172721 0.2047664 0.46117228 -0.11206234 -0.2976368 0.2154212 0.43583855
00000000: 0eca bb3e c137 523e 6c8d 16bf 478d 1b3d
00000010: 4c38 00be 59b9 e6be 00e7 9abe dca0 233e
00000020: fa98 82bd 7137 34be 51fc 8f3c f8d4 b73e
00000030: 8bd8 473e 49dc 94be a753 e8be 60de d03e
00000040: e6c9 b5bd ee87 f1be bc22 c03e 2a39 a63e
00000050: 3744 c33c f4a2 34be c429 103e 0ceb ebbe
00000060: 80fc b43c 5a17 333e 668b 9a3e b719 0b3e
00000070: b235 e5be 6460 38be e006 ba3d caa3 c5be
00000080: e16d a0bb 90f9 2e3d dd08 06be a55b b73d
00000090: 6a49 9f3e baff c3be 1180 99bc 5638 bebe
000000a0: aa75 e63e 2c59 7dbe 4305 d9be fb60 e6bd
000000b0: 7c96 89be 2818 8bbd 8202 fb3e 8bd1 803c
000000c0: 205a f03e 2880 cc3d 2aa1 16be 80d7 903e
000000d0: 29ab b73e 2fa0 05bf 3202 eb3e 4406 86bd
000000e0: b1ef 0abe b0a4 d5be 48ae 513e c61e ec3e
000000f0: f180 e5bd da63 98be 6097 5c3e 3b26 df3e

weight f4 [32, 64]
-0.028500691 0.08354047 -0.12075202 0.072295986 0.09200521 -0.08803115 0.039169088 -0.03163183
0.13007289 0.083077945 -0.029951295 0.10978881 -0.006316794 -0.009547918 -0.21159749 -0.072511226
0.03205683 0.0012139204 0.017652038 -0.015294411 -0.067154385 0.11764961 0.03132586 0.12362677
-0.007873192 0.10353512 0.0073126405 0.017190078 0.004932305 0.02842183 0.044137523 -0.02386731
-0.36159274 0.12326671 -0.0691398 0.07468342 -0.26124567 -0.024123399 -0.06526971 -0.10891174
0.12099475 -0.11022808 -0.22891492 -0.094908185 0.18045746 -0.08883813 -0.050009325 -0.114198476
-0.032118727 -0.085101336 0.10272072 -0.11651543 -0.11239683 -0.096695274 0.09142796 -0.006272791
-0.00727841 -0.038581267 -0.05849401 0.098865494 0.113846436 -0.015068757 -0.043849275 -0.026060935
0.1124232 -0.0060348404 -0.076914564 0.050764173 -0.007202968 -0.0085294265 0.09883907 -0.08404779
-0.060233835 -0.0041013677 0.06328738 0.028152157 -0.1061733 -0.09650913 -0.037331477 0.09306383
-0.11381796 -0.022797871 -0.025494687 0.0043350137 0.064838775 0.10777507 0.09830731 -0.11209163
-0.095634356 -0.1070198 0.0103010535 0.07946739 0.037686232 -0.006786322 -0.115230784 0.023671195
0.11470894 0.053162843 0.0151720485 -0.08384447 -0.03749349 -0.022059314 -0.033969264 0.11015765
0.021076685 0.02391754 -0.0010710483 0.017520096 0.050602604 0.023471445 -0.019934073 0.10537414
-0.10702326 0.05900523 -0.12377976 0.09364167 -0.031484295 0.04168062 0.0050953515 -0.03378174
0.057487275 0.116427004 -0.035295118 -0.03773328 0.008355895 0.021487074 0.052722603 -0.004349044
-0.04319212 -0.02634242 -0.04940419 -0.2003642 -0.0042899996 0.013197472 0.15645035 0.19147424
-0.07103324 -0.20384124 0.06687428 -0.08357217 -0.09498546 -0.060434032 -0.10176942 -0.08103593
-0.08380722 0.029493064 0.105583 -0.1926359 0.052898288 0.20796752 0.106374964 0.087915584
-0.11695759 0.08311251 0.05528921 -0.08183346 0.0941552 0.024889069 0.106670484 0.026024342
-0.29034135 0.014662042 0.020511234 0.03176197 -0.2959625 0.19563347 -0.07475423 -0.04714431
0.01600617 -0.11459938 -0.3171504 0.07060955 0.12774757 -0.0024122745 0.06895903 0.06865532
0.10327577 0.0068578273 -0.052357737 0.05914527 0.021832006 -0.25548914 0.08357977 -0.07308872
-0.039113447 -0.079365194 0.010193677 0.017229587 0.15647414 -0.06274521 0.12228504 -0.032175094
0.05007331 0.08966641 -0.03249752 -0.049297355 0.00078083575 -0.098730594 0.040417485 0.061531857
-0.0711696 -0.08072249 -0.012587547 0.069583036 0.02595372 0.0038688849 0.030104898 -0.04588461
-0.088227645 -0.065200575 0.06972833 0.086617306 -0.13635856 0.07498169 -0.12772165 0.11936313
0.035224497 0.016171312 -0.06573062 -0.13547859 0.09267501 -0.109544575 -0.11682838 0.0959892
0.042558838 0.042760327 -0.103966616 -0.12285494 0.026824895 0.05449186 0.064332746 0.06448683
0.08311849 0.055890724 0.022033142 0.10613529 0.064458914 0.053743362 -0.075753435 0.05315567
0.010970713 -0.046244845 0.030615497 -0.1425679 -0.058916163 -0.058654334 -0.05099361 0.06505162
-0.018231014 0.048276126 -0.094317764 -0.06400411 -0.056423623 -0.0042627924 -0.048045278 -0.04250068
00000000: 487a e9bc 4417 ab3d d64c f7bd eb0f 943d
00000010: 3a6d bc3d ad49 b4bd c46f 203d 6190 01bd
00000020: d431 053e c524 aa3d 6b5c f5bc f5d8 e03d
00000030: 1cfd cebb df6e 1cbc 03ad 58be c480 94bd
00000040: 064e 033d 691c 9f3a 029b 903c 6995 7abc
00000050: 3d88 89bd 47f2 f03d 8c4f 003d 0830 fd3d
00000060: 90fe 00bc 390a d43d e09e ef3b 35d2 8c3c
00000070: 2c9f a13b e6d4 e83c 8cc9 343d 6085 c3bc
00000080: af22 b9be 4273 fc3d 2b99 8dbd 9ff3 983d
00000090: fec1 85be 6f9e c5bc 20ac 85bd 1e0d dfbd
000000a0: 18cc f73d 42bf e1bd ac68 6abe 395f c2bd
000000b0: d7c9 383e c4f0 b5bd 94d6 4cbd e4e0 e9bd
000000c0: ed8e 03bd 9c49 aebd 3e5f d23d a49f eebd
000000d0: 4f30 e6bd 2c08 c6bd 953e bb3d fc8b cdbb
000000e0: ba7f eebb 6407 1ebd 6a97 6fbd fe79 ca3d
000000f0: 5228 e93d f3e2 76bc 4c9b 33bd be7d d5bc
00000100: 223e e63d e9bf c5bb 6285 9dbd 18ee 4f3d
00000110: e006 ecbb 02bf 0bbc 236c ca3d 3f21 acbd
00000120: c1b7 76bd c464 86bb d09c 813d 5a9f e63c
00000130: 6371 d9bd 94a6 c5bd e4e8 18bd 4098 be3d
00000140: 6419 e9bd 9ac2 babc 3cda d0bc bb0c 8e3b
00000150: 31ca 843d 2db9 dc3d 5855 c93d 4c90 e5bd
00000160: f2db c3bd 322d dbbd c0c5 283c cdbf a23d
00000170: e15c 1a3d cc5f debb 1efe ebbd 18ea c13c
00000180: 85ec ea3d 48c1 593d 2f94 783c a6b6 abbd
00000190: c692 19bd bcb5 b4bc 5b23 0bbd 569a e13d
000001a0: 03a9 ac3c b8ee c33c 6b62 8cba 4e86 8f3c
000001b0: ad44 4f3d 3047 c03c c84c a3bc 66ce d73d
000001c0: 032f dbbd 78af 713d 3e80 fdbd 34c7 bf3d
000001d0: adf5 00bd 4cb9 2a3d e8f6 a63b b95e 0abd
000001e0: c777 6b3d 4871 ee3d 9d91 10bd 368e 1abd
000001f0: 2ae7 083c a905 b03c a8f3 573d 6d82 8ebb
00000200: 38ea 30bd 0fcc d7bc 0c5c 4abd 462c 4dbe
00000210: 2093 8cbb 363a 583c 8534 203e d311 443e
00000220: e079 91bd c2bb 50be 62f5 883d e327 abbd
00000230: bd87 c2bd ad89 77bd 7c6c d0bd 2af6 a5bd
00000240: 1fa3 abbd 709b f13c e63b d83d 5842 45be
00000250: e0ab 583d 70f5 543e 1edb d93d 160d b43d
00000260: 7687 efbd e436 aa3d f076 623d 4d98 a7bd
00000270: 71d4 c03d 29e4 cb3c 0e76 da3d 0031 d53c
00000280: 9fa7 94be 1039 703c 2d07 a83c d718 023d
00000290: 6688 97be 2454 483e bf18 99bd 641a 41bd
000002a0: 5f1f 833c 14b3 eabd 8a61 a2be bd9b 903d
000002b0: 42d0 023e 4017 1ebb 643a 8d3d 299b 8c3d
000002c0: 3f82 d33d a0b7 e03b 1175 56bd 5042 723d
000002d0: 09d9 b23c 79cf 82be df2b ab3d 8aaf 95bd
000002e0: 6c35 20bd 388a a2bd 6103 273c 1025 8d3c
000002f0: c23a 203e 9080 80bd 9470 fa3d 08ca 03bd
00000300: ac19 4d3d 06a3 b73d 1f1c 05bd 06ec 49bd
00000310: 00b1 4c3a 4433 cabd ce8c 253d d408 7c3d
00000320: 5ec1 91bd d551 a5bd 003c 4ebc 8d81 8e3d
00000330: e59c d43c 1e8d 7d3b 8c9e f63c 80f1 3bbd
00000340: b2b0 b4bd e187 85bd bacd 8e3d 6a64 b13d
00000350: 94a1 0bbe 0090 993d 77c9 02be a874 f43d
00000360: 9047 103d b379 843c c69d 86bd e6ba 0abe
00000370: 65cc bd3d e858 e0bd b843 efbd fc95 c43d
00000380: 2d52 2e3d 7425 2f3d 73ec d4bd 5f9b fbbd
00000390: e2bf db3c db32 5f3d e3c0 833d ac11 843d
000003a0: 073a aa3d aced 643d d97e b43c 755d d93d
000003b0: 0903 843d 0022 5c3d 9e24 9bbd c3b9 593d
000003c0: 81be 333c 3c6b 3dbd 5acd fa3c 52fd 11be
000003d0: 1352 71bd 873f 70bd adde 50bd c939 853d
000003e0: 3559 95bc 30bd 453d ac29 c1bd 9614 83bd
000003f0: 751c 67bd e5ae 8bbb 20cb 44bd 3115 2ebd

bias f4 [32]
-0.0041161836 0.064940676 0.03853124 0.026366856 0.019854931 -0.00016920253 0.028616006 -0.03649075
-0.12672189 -0.09653352 0.060681805 0.05712737 0.06962557 -0.105403356 0.041109994 0.015883321
-0.044582665 0.047292743 -0.1213219 -0.09387724 -0.10914344 0.044180114 -0.06260168 -0.03598652
-0.103402555 -0.10816206 0.0040166616 -0.12479004 0.15726897 -0.05901362 -0.02842988 0.09316945
00000000: 0de1 86bb 9eff 843d efd2 1d3d 4eff d73c
00000010: cfa6 a23c f56b 31b9 1d6c ea3c 5377 15bd
00000020: 62c3 01be 5eb3 c5bd 7c8d 783d 64fe 693d
00000030: da97 8e3d b7dd d7bd f462 283d bd1d 823c
00000040: 509c 36bd 09b6 413d 9e77 f8bd b642 c0bd
00000050: 9986 dfbd 35f6 343d 4f35 80bd 9a66 13bd
00000060: b8c4 d3bd 1284 ddbd 339e 833b ec91 ffbd
00000070: 1e0b 213e 44b8 71bd c8e5 e8bc a0cf be3d

weight f4 [16, 32]
-0.0017816365 0.063946955 0.04040974 -0.17907003 0.10159132 0.0636127 0.12851477 -0.1057516
-0.12164244 0.1732281 -0.13127632 0.080083445 0.070096865 -0.028082196 -0.040028382 0.21660863
-0.085056365 -0.10498187 0.12860192 0.4970615 0.10058025 -0.09230657 0.3388404 0.15311575
-0.031832308 0.018195093 0.142396 0.16017799 0.10640745 0.3381206 0.12392409 -0.113656625
-0.08861664 0.015902871 0.2566977 0.016472679 -0.048131216 0.023973288 0.07978714 -0.058848668
-0.085813485 -0.04976687 -0.14310233 0.040793173 0.0447561 0.012992978 -0.104984775 0.4773367
0.13300027 0.13335848 0.09632106 0.5745139 -0.07584662 0.10299747 0.81451255 0.1572799
-0.019520074 -0.058234446 -0.10613037 -0.06659276 0.3090787 0.23867452 0.047788456 -0.17098531
0.029276166 -0.09316115 -0.25414976 0.07677983 0.08370214 0.014218716 0.19475688 -0.032410305
0.12460639 0.03517717 0.1481934 0.10156886 -0.06714787 -0.14618051 0.103536785 -0.14343168
-0.014286712 0.15227437 0.0020309687 -0.4525899 -0.06316431 0.15431464 -0.41114014 -0.05219356
-0.14916785 -0.092820406 -0.07884489 0.07495083 -0.028715167 -0.4919112 0.051698923 -0.13539296
0.12762241 0.12550275 -0.13645273 0.08874498 -0.08886945 -0.14841393 0.0010628402 0.0032447428
-0.16918394 -0.09572259 0.11148833 0.13536824 -0.11002142 0.13313071 -0.16838957 -0.08821738
-0.05812379 0.05267833 0.1526836 -0.013663247 -0.04704368 -0.097132914 -0.1309853 0.16655104
0.12261419 0.03232786 -0.035992235 -0.082554 -0.019539788 0.11578454 0.016444772 0.081333354
0.013944077 -0.12122441 0.15836251 0.081596345 -0.105471104 -0.09815995 -0.10402064 -0.016191237
-0.12951982 0.02667287 0.1724943 0.09673204 0.010893717 0.094061635 -0.054080717 -0.10675492
-0.08877749 -0.11249885 -0.15040371 0.12930182 -0.075196765 0.008864743 -0.03304095 0.023466017
-0.009378776 -0.087082826 -0.11378493 -0.053388722 -0.16008484 0.08255432 0.14862405 -0.16437627
-0.15404037 0.07626729 0.0032788068 -0.0017371029 0.14803298 -0.087485835 0.14494808 -0.14165111
0.08990826 0.05881302 -0.11976581 -0.08845608 0.07271199 -0.1615802 -0.09732047 -0.16743353
-0.004662052 0.030453548 -0.13563347 0.14287524 -0.08365568 -0.13062604 -0.124850765 0.12062009
0.11940692 0.09409942 -0.004237607 0.005813122 0.09705408 -0.09127197 -0.060780495 0.124286816
-0.110733844 -0.14791131 -0.049913913 0.1347748 -0.008414518 0.012982452 -0.16430643 0.05427475
-0.11943614 -0.05292774 0.0692489 -0.11558163 0.16121571 0.008172184 -0.11180113 -0.029033938
0.1205454 -0.012341878 0.16908626 0.16342992 0.10152423 -0.12229434 -0.15100789 0.13524699
-0.15321329 -0.052498683 -0.06477894 0.09541489 0.14368458 -0.057010576 0.03132963 -0.17150012
0.07104812 -0.058973465 -0.016383642 0.09767774 0.063350454 -0.055370647 0.056025438 0.030776344
0.07399362 0.12431349 0.04563935 0.019580092 -0.13757376 0.035925496 -0.06275838 0.08048356
-0.14570458 -0.040621173 -0.1679639 -0.0904571 -0.03331937 -0.12324538 -0.04908619 0.04682178
0.16883002 0.13245814 -0.052590456 0.0644951 -0.11119292 -0.09551898 0.15497576 0.095750466
00000000: cd85 e9ba 9ff6 823d af84 253d 225e 37be
00000010: 1c0f d03d 6047 823d 6099 033e 4b94 d8bd
00000020: ac1f f9bd b562 313e 4d6d 06be ca02 a43d
00000030: f28e 8f3d a20c e6bc cdf4 23bd a7ce 5d3e
00000040: 0832 aebd bc00 d7bd 39b0 033e d87e fe3e
00000050: 05fd cd3d 3a0b bdbd 7d7c ad3e 60ca 1c3e
00000060: 9862 02bd e00d 953c 42d0 113e b305 243e
00000070: 26ec d93d 251e ad3e eacb fd3d cec4 e8bd
00000080: a47c b5bd bd46 823c e26d 833e b6f1 863c
00000090: 3d25 45bd a163 c43c 7167 a33d 4d0b 71bd
000000a0: fbbe afbd 58d8 4bbd 6b89 12be be16 273d
000000b0: 2c52 373d 80e0 543c 4202 d7bd 7a65 f43e
000000c0: 3931 083e 208f 083e fa43 c53d 5813 133f
000000d0: 7955 9bbd 56f0 d23d e583 503f fb0d 213e
000000e0: 90e8 9fbc 3e87 6ebd e15a d9bd c961 88bd
000000f0: 903f 9e3e 1867 743e d4bd 433d c616 2fbe
00000100: 92d4 ef3c 46cb bebd eb1f 82be be3e 9d3d
00000110: 076c ab3d 9ef5 683c 596e 473e abc0 04bd
00000120: a331 ff3d f015 103d 03c0 173e 5603 d03d
00000130: d384 89bd 58b0 15be 180b d43d c1df 12be
00000140: d012 6abc d0ed 1b3e 001a 053b ddb9 e7be
00000150: 4a5c 81bd a804 1e3e f680 d2be eac8 55bd
00000160: 75bf 18be a018 bebd 6e79 a1bd d27f 993d
00000170: 123c ebbc c9db fbbe 40c2 533d 74a4 0abe
00000180: 73af 023e cb83 003e 44ba 0bbe eebf b53d
00000190: 3001 b6bd d2f9 17be 004f 8b3a c0a5 543b
000001a0: 8e3e 2dbe 350a c4bd fe53 e43d f99d 0a3e
000001b0: e952 e1bd 6b53 083e 516e 2cbe 50ab b4bd
000001c0: 3613 6ebd 3cc5 573d 1759 1c3e d0db 5fbc
000001d0: e0b0 40bd 9fed c6bd 0321 06be 5b8c 2a3e
000001e0: 261d fb3d 386a 043d 986c 13bd 1212 a9bd
000001f0: e811 a0bc 7220 ed3d 30b7 863c 1a92 a63d
00000200: b375 643c 8144 f8bd c829 223e fc1b a73d
00000210: 3c01 d8bd 1508 c9bd c608 d5bd 7ca3 84bc
00000220: d8a0 04be 1081 da3c 59a2 303e 731b c63d
00000230: 907b 323c 63a3 c03d be83 5dbd 53a2 dabd
00000240: f9d0 b5bd cc65 e6bd 6e03 1abe b267 043e
00000250: c300 9abd 6d3d 113c f255 07bd ce3b c03c
00000260: 70a9 19bc 7b58 b2bd 1308 e9bd 22ae 5abd
00000270: 48ed 23be 3d12 a93d e730 183e 4152 28be
00000280: c2bc 1dbe 0632 9c3d 40e1 563b 80af e3ba
00000290: f595 173e c62b b3bd 456d 143e fd0c 11be
000002a0: d221 b83d ece5 703d c747 f5bd 7628 b5bd
000002b0: 06ea 943d 4875 25be f44f c7bd b273 2bbe
000002c0: 20c4 98bb b879 f93c 80e3 0abe e34d 123e
000002d0: ab53 abbd d5c2 05be c2b1 ffbd aa07 f73d
000002e0: 9e8b f43d 32b7 c03d a0db 8abb 007c be3b
000002f0: 4ac4 c63d ccec babd f8f4 78bd 168a fe3d
00000300: 6dc8 e2bd 1076 17be 8872 4cbd 6802 0a3e
00000310: 0cdd 09bc 5ab4 543c f23f 28be 334f 5e3d
00000320: ef9a f4bd c2ca 58bd 5ed2 8d3d 10b6 ecbd
00000330: bb15 253e a0e4 053c fef7 e4bd 95d8 edbc
00000340: 82e0 f63d 9735 4abc f324 2d3e 2c5a 273e
00000350: efeb cf3d 7475 fabd d0a1 1abe 307e 0a3e
00000360: f2e3 1cbe dc08 57bd d2aa 84bd e268 c33d
00000370: 0d22 133e ec83 69bd 8053 003d ba9d 2fbe
00000380: ad81 913d 298e 71bd fd36 86bc 440b c83d
00000390: e2bd 813d 55cc 62bd ee7a 653d ac1e fc3c
000003a0: f889 973d 1298 fe3d 54f0 3a3d 6e66 a03c
000003b0: 23e0 0cbe 9d26 133d 7787 80bd 91d4 a43d
000003c0: 9533 15be 6362 26bd bbfe 2bbe 9241 b9bd
000003d0: e479 08bd 1368 fcbd 9a0e 49bd 32c8 3f3d
000003e0: c7e1 2c3e 1ba3 073e 1769 57bd 0216 843d
000003f0: 1db9 e3bd 749f c3bd f7b1 1e3e d218 c43d

bias f4 [16]
-0.02100767 -0.07116551 0.15435526 0.1767383 -0.12786426 -0.12850356 0.0002902092 -0.08581068
-0.033737283 -0.0008522246 0.017887238 -0.097975045 0.11561798 0.08068918 0.07820695 0.012567365
00000000: 4718 acbc 39bf 91bd 4e0f 1e3e e3fa 343e
00000010: d9ee 02be 7096 03be 3827 9839 83bd afbd
00000020: 1b30 0abd d367 5fba 4288 923c 24a7 c8bd
00000030: 1fc9 ec3d 5e40 a53d f72a a03d 59e7 4d3c

weight f4 [1, 16]
0.1818227 0.2663279 -0.17471673 -0.012757599 -0.14815874 -0.06181848 0.1866078 0.10214659
0.097318925 0.3632953 -0.21037662 -0.17287323 -0.2392391 -0.020093495 0.2979314 -0.40941346
00000000: bb2f 3a3e 215c 883e f1e8 32be 4005 51bc
00000010: edb6 17be 6035 7dbd 1d16 3f3e 3b32 d13d
00000020: 254f c73d d701 ba3e f86c 57be ae05 31be
00000030: 18fb 74be 1d9b a4bc 778a 983e a49e d1be
